                 from  n    params  module                                  arguments
  0                -1  1       467  models.common.Conv_1                    [3, 64, 7, 2]
  1                -1  1     13888  models.common.BasicBlock_5              [64, 64, 3, 2]
  2                -1  1     31104  models.common.Concat_res6               [64, 128, 3, 2]
  3                -1  1    119552  models.common.Concat_res6               [128, 256, 3, 2]
  4                -1  1    468480  models.common.Concat_res6               [256, 512, 3, 2]
  5                -1  1    934912  models.common.BasicBlock_1n             [512, 256, 1]
  6                -1  1    534528  models.common.BasicBlock_5              [256, 512, 3, 1]
  7                -2  1     83328  models.common.BasicBlock_5              [256, 128, 1, 1]
  8                -1  1         0  models.common.Sample                    [None, 2, 'nearest']
  9           [-1, 3]  1         0  models.common.Concat                    [2]
 10                -1  1    269824  models.common.BasicBlock_5              [384, 256, 3, 1]
 11           [10, 6]  1     41580  models.yolo.Detect                      [13, [[10, 14, 23, 27, 37, 58], [81, 82, 135, 169, 344, 319]], [256, 512]]
Model Summary: 215 layers, 2497663 parameters, 2497663 gradients, 0.0 GFLOPs
Scaled weight_decay = 0.0005
[34m[1moptimizer:[39m[22m SGD with parameter groups 25 weight, 52 weight (no decay), 27 bias
[34m[1malbumentations: [39m[22mBlur(always_apply=False, p=0.01, blur_limit=(3, 7)), MedianBlur(always_apply=False, p=0.01, blur_limit=(3, 7)), ToGray(always_apply=False, p=0.01), CLAHE(always_apply=False, p=0.01, clip_limit=(1, 4.0), tile_grid_size=(8, 8))
…
