                 from  n    params  module                                  arguments
  0                -1  1     75840  models.common.ResNetLayerBasic          [3, 64, 3, 2, True, 1]
  1                -1  1     78208  models.common.ResNetLayerBasic          [64, 64, 3, 2, False, 1]
  2                -1  1    230144  models.common.ResNetLayerBasic          [64, 128, 3, 2, False, 1]
  3                -1  1    919040  models.common.ResNetLayerBasic          [128, 256, 3, 2, False, 1]
  4                -1  1   3673088  models.common.ResNetLayerBasic          [256, 512, 3, 2, False, 1]
  5                -1  1   7212032  models.common.BasicBlock_1              [512, 256, 1]
  6                -1  1   3673088  models.common.BasicBlock_2              [256, 512, 3, 1]
  7                -2  1     82688  models.common.BasicBlock_2              [256, 128, 1, 1]
  8                -1  1         0  models.common.Sample                    [None, 2, 'nearest']
  9           [-1, 3]  1         0  models.common.Concat                    [2]
 10                -1  1   1574400  models.common.BasicBlock_2              [384, 256, 3, 1]
 11           [10, 6]  1     41580  models.yolo.Detect                      [13, [[10, 14, 23, 27, 37, 58], [81, 82, 135, 169, 344, 319]], [256, 512]]
Model Summary: 183 layers, 17560108 parameters, 17560108 gradients, 0.0 GFLOPs
Scaled weight_decay = 0.0005
[34m[1moptimizer:[39m[22m SGD with parameter groups 27 weight, 29 weight (no decay), 29 bias
[34m[1malbumentations: [39m[22mBlur(always_apply=False, p=0.01, blur_limit=(3, 7)), MedianBlur(always_apply=False, p=0.01, blur_limit=(3, 7)), ToGray(always_apply=False, p=0.01), CLAHE(always_apply=False, p=0.01, clip_limit=(1, 4.0), tile_grid_size=(8, 8))
…
